chatbot/data.pth (torch, 5226 bytes, 6 tensors)

l1.weight f4 [8, 50]
000000 2b 59 8d 3e a0 72 90 bb ab 3a b3 3e d0 96 42 be
       0.27607092 -0.0044081956 0.35005698 -0.19002843
000010 26 64 e2 3e 0f 15 da 3e f3 33 ea 3e 76 8d d9 3e
       0.44217032 0.4259419 0.4574276 0.4249074
000020 21 e3 1d bf 39 f9 3d 3c c2 64 79 3e 9d d6 dc bd
       -0.61674696 0.011595064 0.24354842 -0.10783122
000030 66 13 b4 3e cc 7c 08 3f 25 b7 01 3f 03 29 ed 3e
       0.3517105 0.53315425 0.5067008 0.46320352
000040 40 e3 1d bf f9 39 cc 3e b6 03 17 3f eb b7 ef bd
       -0.6167488 0.3988798 0.5899004 -0.117050014
000050 66 4e 28 3f 49 27 1a 3f e0 d7 24 bd 99 a3 2e bc
       0.65744627 0.60216194 -0.040244937 -0.010659122
000060 30 ad 9b 3e f9 9c 1c 3f 08 1b 7f be cf ad 36 3e
       0.3040557 0.6117702 -0.24912655 0.1783974
000070 4e af 0c 3f 1b e3 9f 3e 8e 05 75 bd 4f 31 5d be
       0.54954994 0.31227955 -0.05981975 -0.21600841
000080 a3 5b ae 3e 16 87 4e 3e 81 1d 44 be bc 41 a4 3e
       0.34054288 0.20168719 -0.1915188 0.320814
000090 90 02 ac be 57 9c a0 3e 6c fa ea bd c9 00 8e bd
       -0.33595705 0.31369278 -0.114735454 -0.069337435
0000a0 a9 62 ff 3e 1f 23 8f 3e 1b 46 c8 3e 6d 4a 2c 3e
       0.4987996 0.27956483 0.39115986 0.16825266
0000b0 53 a4 bb be 18 61 5d be 05 cb e6 3e 6c 45 6c bd
       -0.36648807 -0.2161907 0.45076767 -0.057683393
0000c0 cb 89 1c be 11 be 01 bd 6f 83 b6 3e 24 c4 e3 bd
       -0.15286939 -0.031675402 0.3564715 -0.11121395
0000d0 f2 18 85 3e 32 6a dd bd 19 3b 9f 3e 22 9f 8c 3e
       0.25995594 -0.10811271 0.31099775 0.2746516
0000e0 7e 1f b4 3e 00 8e af 3e c6 c7 32 bf 24 40 94 bb
       0.35180277 0.34288025 -0.6983608 -0.0045242477
0000f0 06 18 c6 3e e5 41 a0 bd 69 06 08 3f c2 5e f0 3e
       0.38690203 -0.078250684 0.5313478 0.46947294
000100 22 87 9c 3e 1e bd 24 3f 95 f6 27 bf 8e 79 76 3e
       0.30571848 0.6435107 -0.6561063 0.24069807
000110 32 69 24 3f 8d 02 22 be 75 fc f4 3e de fd 18 3f
       0.64223015 -0.15821286 0.4784886 0.5976237
000120 2f dd 10 3e d4 81 d1 bd 18 d2 8a 3e 7b fd 3d 3f
       0.14146875 -0.10229841 0.27113414 0.74214906
000130 30 a8 9d be d7 af cb 3e 04 d6 b8 3e 65 77 15 3f
       -0.3079238 0.39782593 0.3610078 0.58385307
000140 a1 d9 47 be 6f 53 6f be ac be b2 3e cc f9 67 3e
       -0.19516613 -0.23371671 0.34911096 0.22653884
000150 de f8 79 be 10 0d e2 3e d8 5f dd be e7 a5 3d 3e
       -0.24411342 0.4415059 -0.43237185 0.18520318
000160 7a 5b 04 be a0 3d 3e bd 10 80 bf 3e c2 2c 37 3e
       -0.1292552 -0.04644549 0.3740239 0.17888168
000170 33 de 9f 3e a9 56 72 3e e4 10 1c be bc b2 8e be
       0.31224212 0.2366587 -0.15240818 -0.27870739
000180 2d d8 f9 3e 47 7a 83 bc 84 21 90 bc 32 60 2b 3d
       0.48797742 -0.016049517 -0.017594106 0.041839786
000190 f0 44 e4 3e 21 e1 92 3e 6f e1 c0 bd fe d2 26 be
       0.44583845 0.28687385 -0.09417998 -0.16291425
0001a0 9f 75 0a bf e5 63 d8 be 73 a8 ae 3e a8 d5 8c 3e
       -0.54085726 -0.42263713 0.34112892 0.27506757
0001b0 ce c6 2e 3f ab 55 0c bf 54 8c 94 bd 0b 93 bc be
       0.682721 -0.5481822 -0.07253328 -0.36830935
0001c0 90 72 da 3e 7a d7 81 3e 30 a5 e6 3d f8 2a f4 3e
       0.4266553 0.25359708 0.11261976 0.47689033
0001d0 8f d8 22 3f b5 03 19 be 95 87 18 3f 6f 4b d8 be
       0.6361169 -0.1494282 0.5958188 -0.4224505
0001e0 79 09 dd 3e 67 0b 00 3f 17 a0 dd be a4 c5 fa 3d
       0.4317129 0.500174 -0.432862 0.12244728
0001f0 9c 67 e8 bd 55 ef cd 3e 39 3a f9 3e a9 80 7d 3e
       -0.11347887 0.40221658 0.48677233 0.24756111
000200 7a fd 17 3e a5 a0 b3 3e 4e 76 a9 be b9 66 ee bc
       0.14842787 0.350835 -0.33098072 -0.029101716
000210 6a de 52 be a9 31 a6 3d e1 78 a9 bd c8 75 ef 3e
       -0.20592657 0.08114941 -0.08275009 0.46769547
000220 71 b6 d8 3e 82 f0 ac 3e 4f f8 6e 3b 8f 6b e7 3e
       0.42326692 0.33777243 0.0036463921 0.45199248
000230 f2 8a 81 be 67 62 b6 bd 61 b1 f2 bd 53 33 5f be
       -0.2530132 -0.089054875 -0.118502386 -0.21796922
000240 8a 2c 6d be 69 75 82 be 47 43 85 3e ec 22 38 bd
       -0.23161522 -0.25480202 0.2602789 -0.04495518
000250 26 42 58 be 2d 95 c2 3d 22 99 9a 3e 20 1a 00 3f
       -0.21118984 0.09501109 0.30194956 0.50039864
000260 3e 7e 90 3e 13 7e 62 3e ca d5 0d 3f a9 67 56 be
       0.28221315 0.22118406 0.5540434 -0.2093798
000270 d1 f9 15 3f 63 fb 0e 3f 7e b7 e0 bc 0e d9 c0 3d
       0.58584315 0.55852336 -0.027431246 0.094164
000280 4f f9 c3 be 8a fb 55 3e 63 19 66 be cd 3a 50 3f
       -0.38276145 0.20896736 -0.22470622 0.8133972
000290 43 2e 1d 3f a7 8f 56 be 07 a7 5d bd 58 5c 91 3e
       0.61398715 -0.20953237 -0.054114368 0.28390765
0002a0 9d 56 de be 99 7b 1f 3e 54 80 de be c5 5f de be
       -0.43425456 0.15574493 -0.43457282 -0.4343244
0002b0 59 fb 94 3d 8e 1e 0d 3f 84 94 2c 3b f5 2f 6c 3f
       0.07274503 0.5512475 0.002633364 0.92260677
0002c0 28 37 09 be 4f 20 94 3e 57 29 25 3f c2 52 66 be
       -0.13399947 0.289309 0.64516205 -0.22492507
0002d0 5a 55 35 bd 71 4e 9e be 62 61 9c 3e 74 b3 67 be
       -0.04427085 -0.3091922 0.30543047 -0.2262705
0002e0 8c 33 51 3e 0f 6a ce 3e a3 73 06 be 0b fa ee 3e
       0.2042982 0.4031529 -0.1313005 0.46675143
0002f0 42 fd 87 be 66 fe d4 3e 61 5c d1 3e 8a e9 af 3e
       -0.26560408 0.4160034 0.40890792 0.34357864
000300 54 15 44 3e c3 52 39 be 31 61 b3 3e e5 73 75 3e
       0.19148761 -0.18097977 0.3503509 0.23969992
000310 3e c6 cc 3e f2 23 07 3e 55 97 b9 3e ba 58 dd 3d
       0.39994997 0.13197306 0.3624827 0.10807939
000320 80 e4 9f be d7 b7 0a bd 44 19 80 3e ca 0a 8d 3e
       -0.3122902 -0.03386673 0.25019276 0.27547294
000330 ae bf d1 3e 34 5f 4b 3f 3c 51 86 bd 37 30 98 bc
       0.40966552 0.79442143 -0.06558463 -0.018577678
000340 b1 f1 03 bf d5 2e 04 3f ec d3 14 3f 7d b6 7f 3e
       -0.51540667 0.5163396 0.5813587 0.24971958
000350 c8 d3 9c 3e a6 5f c1 bd 94 09 85 3e 14 c6 a5 3e
       0.30630326 -0.094420716 0.2598387 0.32377684
000360 ba a4 05 bf e0 7b c0 3e 74 b0 fe 3e d3 fa 07 3f
       -0.5220448 0.3759451 0.49743998 0.531171
000370 90 71 c1 3e e7 b9 fa 3e f2 78 ba 3e 4f 48 b7 3e
       0.37781954 0.48969957 0.364204 0.35797355
000380 ab e1 1a 3f 3b ca 6c 3d 5c 67 8d be cd 7f a9 be
       0.6050059 0.05781005 -0.2761792 -0.33105317
000390 d7 26 aa 3e 31 77 81 3e 35 0f 3d 3f 53 e3 d9 3e
       0.33232757 0.25286248 0.7385133 0.42556247
0003a0 0b 9b 11 3f 07 21 ae 3e ae e0 6b 3e 6d 19 a6 be
       0.568772 0.34009573 0.23034927 -0.32441273
0003b0 e0 70 c9 be b9 f0 cd bd 1b 69 47 3e 05 7d 6b bd
       -0.3934393 -0.1005568 0.19473688 -0.057492275
0003c0 85 27 e9 3e 3f 00 c7 3e 96 5b 6f 3e 2e 44 12 3f
       0.45537964 0.38867375 0.23374781 0.57135284
0003d0 f7 92 80 bd 62 9d e4 3e 48 ab e5 3e cb 52 cc 3d
       -0.06278031 0.44651324 0.4485724 0.09976729
0003e0 ad 5a 86 3e bf 55 2b 3e c3 dc c2 3e 9f 0d f6 3e
       0.26241055 0.16731928 0.38059053 0.48057267
0003f0 8a 0e 5a be 72 69 ab bd e4 0c 12 bf 8f 57 df be
       -0.21294609 -0.083697215 -0.5705092 -0.4362149

l1.bias f4 [8]
000000 46 e7 1d 3f c2 d2 32 3f a5 a6 78 3f 54 53 de 3e
       0.6168102 0.6985284 0.9712928 0.4342295
000010 10 33 12 3f c3 23 5f 3f 6c 50 07 3f 7c 38 6c 3f
       0.57109165 0.87163943 0.5285709 0.9227369

l2.weight f4 [8, 8]
000000 5e e1 9e 3f 5e 78 a0 3f f9 3e 04 3f a9 e9 f6 be
       1.2412527 1.2536733 0.5165859 -0.48225144
000010 dc b8 81 3f 09 a8 4e 3e f7 ef 72 bf bd 67 b5 3c
       1.013454 0.20181288 -0.9489741 0.022144193
000020 0b 77 b2 3e dc 50 a2 be 66 3a 7f be e8 10 76 bd
       0.34856448 -0.31702316 -0.24924621 -0.060074717
000030 14 91 4e be d4 e0 8e bd cc e1 af 3d 04 9f 30 be
       -0.2017253 -0.06976476 0.08587989 -0.1724816
000040 da ec 6d 3f e0 b5 27 3f 00 52 6b 3f 23 b5 a9 3f
       0.9293953 0.65511894 0.91922 1.3258404
000050 1f 76 86 3e d6 25 07 3f 0d 44 2a 3f 98 ba 93 bf
       0.26261994 0.5279211 0.6651009 -1.1541319
000060 ba fc 89 be b9 9f 93 3d 9d aa 8b 3f 38 d4 ac bf
       -0.26950628 0.07208199 1.0911442 -1.3502264
000070 97 33 8c 3e 44 19 58 3f 92 4e a1 be cd c5 a0 3f
       0.2738311 0.8441355 -0.31505257 1.2560364
000080 50 fb 0a 3d 19 33 37 be f0 47 28 3d a0 06 cc bd
       0.033931077 -0.17890586 0.04108423 -0.09962201
000090 00 27 94 3b ef 52 95 be 83 9c 59 be 12 da 90 be
       0.0045212507 -0.29164836 -0.2125111 -0.28291374
0000a0 5d 07 a3 bf 02 1c 30 bf 5c 2f 43 3f be 7a f1 3e
       -1.2736622 -0.68792737 0.7624414 0.47163957
0000b0 f7 8d 2c be 90 1c b1 3e d8 12 8e 3f b6 db 3a 3f
       -0.1685103 0.34592104 1.1099501 0.729915
0000c0 d0 a0 34 be 91 97 e8 be d3 2f 0f bf a4 51 a1 bd
       -0.1763947 -0.45428136 -0.5593235 -0.078769
0000d0 59 a1 5c 3f c0 3c 9e be 5b a7 98 3d ef 93 69 3f
       0.86183697 -0.30905724 0.074537955 0.91241354
0000e0 c3 9f 1c 3e 8a 8f 31 3d 49 a0 6f bf 53 20 ed 3e
       0.1529532 0.04334978 -0.9360395 0.46313724
0000f0 ab 1b 52 3f 96 25 60 bf ef 78 22 3f 1e 8a 7d 3f
       0.8207347 -0.8755735 0.6346578 0.99038875

l2.bias f4 [8]
000000 5e 90 2c 3f 04 b7 93 be e9 48 b4 bd 27 da 62 3f
       0.67407787 -0.28850567 -0.08802969 0.88614124
000010 a0 a3 e1 bc b5 5f 53 bb fb 10 87 3c 8d 06 37 3e
       -0.027543843 -0.003225309 0.01648759 0.17873593

l3.weight f4 [6, 8]
000000 6a 84 66 3e f0 43 ca bc d8 2a e2 bd e5 c5 9b bf
       0.2251145 -0.024690598 -0.11043328 -1.2169768
000010 fa 0f 7d 3e 53 7b 1d bf ee fe 14 bf 5c 4b 1b 3f
       0.24713126 -0.615163 -0.5820149 0.60661864
000020 ff fb 5e 3e de df 61 3e 4f 9f a6 bf 36 b1 c1 bd
       0.21775816 0.22058055 -1.3017367 -0.094576284
000030 ea b2 13 3e 75 b6 ac bf e3 89 f2 3e eb c7 6c 3e
       0.14423719 -1.3493181 0.47370824 0.23123138
000040 4c 91 09 bf c2 5b 6c 3e dc 37 d2 be a7 5a 8d 3e
       -0.5373733 0.23081878 -0.41058242 0.27608225
000050 18 46 80 be 61 2d 2b 3f 78 52 84 bf e2 7d 26 bf
       -0.25053477 0.6686612 -1.0337667 -0.6503583
000060 22 e1 1a 3f 76 98 19 3e f9 1f a4 be f3 a5 f3 3e
       0.60499775 0.14999565 -0.32055643 0.47587547
000070 b8 c0 a2 be f8 ef b8 bf d0 79 6d bf a0 3b 80 bf
       -0.31787658 -1.4448233 -0.92763996 -1.0018196
000080 d4 51 98 3e d7 df a1 3e 91 af 1f 3f f6 03 7d bf
       0.2974993 0.3161609 0.6237727 -0.9883417
000090 da e8 04 be 70 e2 64 bf 40 1b 42 bf 06 a9 8e bf
       -0.12979451 -0.89408016 -0.7582283 -1.1145332
0000a0 af 75 7f bf 81 44 8f 3e 29 92 8d bf f5 4c c5 be
       -0.99788946 0.27981952 -1.106023 -0.38535276
0000b0 0a 40 75 3e 74 d6 86 bd eb 6e e7 3e 86 be eb 3e
       0.2395021 -0.065838724 0.4520181 0.46043795

l3.bias f4 [6]
000000 96 90 ab bd 3f 13 59 3c 37 9a 3b 3d a4 ce 0f 3b
       -0.08377187 0.0132492175 0.045801368 0.0021943236
000010 54 42 40 be f3 5b 88 3d
       -0.18775302 0.06658163
